…
lass=\"line\"><span class=\"meta prompt_\">100%</span><span class=\"language-bash\">|████████████████████████████████████████████████████████████████████████████████████████████████████████████████████████████████████████████| 22.2M/22.2M [00:01&lt;00:00, 21.2MB/s]</span></span><br><span class=\"line\">Overriding model.yaml nc=80 with nc=4</span><br><span class=\"line\"></span><br><span class=\"line\">                   from  n    params  module                                       arguments                     </span><br><span class=\"line\">  0                  -1  1       464  ultralytics.nn.modules.conv.Conv             [3, 16, 3, 2]                 </span><br><span class=\"line\">  1                  -1  1      4672  ultralytics.nn.modules.conv.Conv             [16, 32, 3, 2]                </span><br><span class=\"line\">  2                  -1  1      7360  ultralytics.nn.modules.block.C2f             [32, 32, 1, True]             </span><br><span class=\"line\">  3                  -1  1     18560  ultralytics.nn.modules.conv.Conv             [32, 64, 3, 2]                </span><br><span class=\"line\">  4                  -1  2     49664  ultralytics.nn.modules.block.C2f             [64, 64, 2, True]             </span><br><span class=\"line\">  5                  -1  1     73984  ultralytics.nn.modules.conv.Conv             [64, 128, 3, 2]               </span><br><span class=\"line\">  6                  -1  2    197632  ultralytics.nn.modules.block.C2f             [128, 128, 2, True]           </span><br><span class=\"line\">  7                  -1  1    295424  ultralytics.nn.modules.conv.Conv             [128, 256, 3, 2]              </span><br><span class=\"line\">  8                  -1  1    460288  ultralytics.nn.modules.block.C2f             [256, 256, 1, True]           </span><br><span class=\"line\">  9                  -1  1    164608  ultralytics.nn.modules.block.SPPF            [256, 256, 5]                 </span><br><span class=\"line\"> 10                  -1  1         0  torch.nn.modules.upsampling.Upsample         [None, 2, &#x27;nearest&#x27;]          </span><br><span class=\"line\"> 11             [-1, 6]  1         0  ultralytics.nn.modules.conv.Concat           [1]                           </span><br><span class=\"line\"> 12                  -1  1    148224  ultralytics.nn.modules.block.C2f             [384, 128, 1]                 </span><br><span class=\"line\"> 13                  -1  1         0  torch.nn.modules.upsampling.Upsample         [None, 2, &#x27;nearest&#x27;]          </span><br><span class=\"line\"> 14             [-1, 4]  1         0  ultralytics.nn.modules.conv.Concat           [1]                           </span><br><span class=\"line\"> 15                  -1  1     37248  ultralytics.nn.modules.block.C2f             [192, 64, 1]                  </span><br><span class=\"line\"> 16                  -1  1     36992  ultralytics.nn.modules.conv.Conv             [64, 64, 3, 2]                </span><br><span class=\"line\"> 17            [-1, 12]  1         0  ultralytics.nn.modules.conv.Concat           [1]                           </span><br><span class=\"line\"> 18                  -1  1    123648  ultralytics.nn.modules.block.C2f             [192, 128, 1]                 </span><br><span class=\"line\"> 19                  -1  1    147712  ultralytics.nn.modules.conv.Conv             [128, 128, 3, 2]              </span><br><span class=\"line\"> 20             [-1, 9]  1         0  ultralytics.nn.modules.conv.Concat           [1]                           </span><br><span class=\"line\"> 21                  -1  1    493056  ultralytics.nn.modules.block.C2f             [384, 256, 1]                 </span><br><span class=\"line\"> 22        [15, 18, 21]  1    752092  ultralytics.nn.modules.head.Detect           [4, [64, 128, 256]]           </span><br><span class=\"line\">Model summary: 129 layers, 3,011,628 parameters, 3,011,612 gradients, 8.2 GFLOPs</span><br><span class=\"line\"></span><br><span class=\"line\">Transferred 319/355 items from pretrained weights</span><br><span class=\"line\">Freezing layer &#x27;model.22.dfl.conv.weight&#x27;</span><br><span class=\"line\">train: Scanning /home/czq2/test
…
